TrainingData.pth (torch, 9559 bytes, 6 tensors)

l1.weight f4 [8, 129]
-0.22592832 -0.6921867 1.318762 0.7177403 0.59670514 -0.60615575 1.3944297 0.04286904
-0.008896166 0.48065764 0.6544296 0.73207664 0.46614414 -0.13338417 1.3363273 -0.6909691
-0.46167278 0.29913595 -0.0375867 0.2504063 -0.30655155 -1.1706558 -0.3872448 -0.5421267
0.051316068 -0.60507447 1.2341359 1.2211343 -0.25172582 0.91922885 0.51363206 0.0868353
0.90655464 0.018815186 1.2279216 0.007362742 0.14605056 -0.5663921 1.0924852 -0.5284863
-0.41598713 0.19218448 -1.2668436 0.8789498 0.30080378 0.57700753 -0.15358935 1.2285453
-0.15956339 1.2417483 -0.14616233 0.6496495 1.2498274 0.5633213 0.7044908 0.90635556
0.6812928 -0.3108868 0.066914625 0.3744109 0.46516034 -0.642513 0.6772958 -0.4759028
-0.6414985 1.5076929 -0.2122352 0.33476555 0.21133944 -0.6293414 -0.022305965 0.9833585
-1.239493 -0.4954862 0.73530066 0.8026486 -0.029765222 -0.30533126 0.41975784 0.54510623
-0.05855025 -0.21749087 -1.0732436 -0.54412335 -0.1477582 1.1115254 -0.014082814 0.30422
0.54966384 0.45317575 0.5797009 0.49057904 0.9530291 1.2637707 0.28448817 -0.4537046
-1.1922855 -0.19287248 -0.64256483 -0.6202513 0.29559952 1.1019095 1.056214 -0.81368685
0.69310373 0.6068743 -0.69754475 -0.13906959 0.8413639 0.522762 0.33092126 -0.18100189
1.4945465 0.42177662 0.5207548 -0.23466627 0.134468 -0.22444591 0.20495117 0.2730832
-0.38971797 -0.37545663 0.7280235 0.070187904 -0.26544935 -0.38264546 -0.63148934 -0.6032054
-0.59310555 -0.12295967 -0.14624074 -1.2766889 -0.18181027 0.47397703 0.4890787 -0.26078603
-0.26092833 0.072215945 -0.361453 -0.048855133 -0.26679945 0.7083149 0.7928862 -0.3548744
-0.6291813 0.78762597 1.1329982 -0.5838886 -0.35663477 0.48616534 -0.61401397 -0.579525
-0.7240522 1.0509902 -0.34824613 0.9295854 1.096625 -0.01805039 1.0916793 -0.6336729
0.07366631 0.60542905 -0.12659457 -0.49448916 -0.1406674 0.17380053 -0.30549785 -0.8877145
-0.29019317 -0.32173312 0.5191446 1.4897594 -0.40996027 1.1110114 0.4980081 1.1824166
0.6809847 -0.49106315 0.70535636 -0.3285768 0.23902453 -0.52092326 -0.2859999 -0.5117015
-0.67817914 0.79034555 0.4015504 -0.31346223 0.4978131 0.836188 0.03011591 -1.0262485
-0.5123434 -0.1551278 -1.4221665 0.17604119 -0.8632206 0.2067105 0.73546517 -0.07324505
-0.32120347 0.7575231 1.511591 -0.110282086 -0.63346946 -0.06481393 1.0040771 0.1916474
-0.0043482836 0.56136376 -0.30868596 0.7328681 -0.23881316 1.1884428 -0.9105261 0.32782927
-0.47782156 0.5285029 0.8997847 -0.60767496 -0.5401157 0.5898517 0.74339205 -0.41758013
-0.34824806 0.44547534 -0.6650903 0.65458167 -0.22285408 -0.4288131 0.9036138 0.8468608
0.38181132 -0.51927465 -0.5177318 -1.1973988 -0.5361745 0.29261014 0.5591925 -0.09251967
-0.23113056 -0.7131457 -0.4380445 1.3079749 0.91208005 0.64402944 -0.09145647 -0.47249362
0.02314104 -0.101685904 0.24387692 0.6841398 -0.11317518 0.17996319 -0.45663816 0.42079714
00000000: c159 67be 2633 31bf 31cd a83f d4bd 373f
00000010: abc1 183f 062d 1bbf ac7c b23f 7297 2f3d
00000020: 3ac1 11bc c218 f63e b388 273f 6069 3b3f
00000030: 72aa ee3e dc95 08be c60c ab3f 5ae3 30bf
00000040: 6060 ecbe 5928 993e 83f4 19bd 4135 803e
00000050: 53f4 9cbe 0dd8 95bf f344 c6be d1c8 0abf
00000060: cc30 523d 29e6 1abf 2af8 9d3f 214e 9c3f
00000070: 35e2 80be 9552 6b3f 647d 033f b5d6 b13d
00000080: f713 683f 4e22 9a3c 892c 9d3f 2843 f13b
00000090: 478e 153e 13ff 10bf 8ed6 8b3f e14a 07bf
000000a0: 44fc d4be 02cc 443e ee27 a2bf db02 613f
000000b0: f402 9a3e c4b6 133f 8746 1dbe f940 9d3f
000000c0: 9664 23be 9cf1 9e3f 94ab 15be 6e4f 263f
000000d0: 58fa 9f3f d335 103f 8259 343f eb06 683f
000000e0: 3469 2e3f 8e2c 9fbe 890a 893d c9b2 bf3e
000000f0: 7f29 ee3e bb7b 24bf 4263 2d3f 88a9 f3be
00000100: 3f39 24bf 15fc c03f 2f54 59be 6466 ab3e
00000110: 5e69 583e 851c 21bf 00bb b6bc 62bd 7b3f
00000120: b5a7 9ebf 5eb0 fdbe aa3c 3c3f 617a 4d3f
00000130: 32d6 f3bc 6154 9cbe 80ea d63e 158c 0b3f
00000140: 63d2 6fbd edb5 5ebe 0c60 89bf ab4b 0bbf
00000150: ed4d 17be 7746 8e3f 9abb 66bc b9c2 9b3e
00000160: c5b6 0c3f a706 e83e 4767 143f 2d2d fb3e
00000170: b7f9 733f 3dc3 a13f 6fa8 913e f84b e8be
00000180: d09c 98bf 5d80 45be 217f 24bf cac8 1ebf
00000190: d258 973e 5f0b 8d3f 0532 873f c84d 50bf
000001a0: 3f6f 313f 1d5c 1b3f 4b92 32bf 4268 0ebe
000001b0: a063 573f bbd3 053f 836e a93e 8f58 39be
000001c0: 4d4d bf3f 1bf3 d73e 3050 053f 5b4c 70be
000001d0: fbb1 093e 26d5 65be b8de 513e 90d1 8b3e
000001e0: 1d89 c7be da3b c0be c05f 3a3f adbe 8f3d
000001f0: fae8 87be 1bea c3be 49a9 21bf ab6b 1abf
00000200: c4d5 17bf 48d2 fbbd 22c0 15be 8b6a a3bf
00000210: 792c 3abe 1ead f23e 8668 fa3e bf85 85be
00000220: 6698 85be f4e5 933d 5e10 b9be 521c 48bd
00000230: f099 88be 2054 353f 97fa 4a3f 19b2 b5be
00000240: 0712 21bf dba1 493f 1606 913f b979 15bf
00000250: d598 b6be aaea f83e 0530 1dbf c05b 14bf
00000260: 7c5b 39bf d986 863f 514d b2be 4ff9 6d3f
00000270: 355e 8c3f 69de 93bc 26bc 8b3f 6338 22bf
00000280: 5dde 963d 66fd 1a3f 02a2 01be af2d fdbe
00000290: 1d0b 10be c4f8 313e 376a 9cbe 4241 63bf
000002a0: 3394 94be 34ba a4be a9e6 043f 70b0 be3f
000002b0: 50e6 d1be 9f35 8e3f ebfa fe3e 6d59 973f
000002c0: 0355 2e3f a16c fbbe 3c92 343f 383b a8be
000002d0: d9c2 743e 3a5b 05bf 946e 92be dffe 02bf
000002e0: 269d 2dbf 1654 4a3f 0498 cd3e 1f7e a0be
000002f0: 5ce1 fe3e 6b10 563f a4b5 f63c 1c5c 83bf
00000300: f028 03bf d2d9 1ebe 8d09 b6bf 2444 343e
00000310: 06fc 5cbf ebab 533e 7247 3c3f 8001 96bd
00000320: c874 a4be 09ed 413f d07b c13f 93db e1bd
00000330: 0e2b 22bf 2abd 84bd 9985 803f 373f 443e
00000340: 0c7c 8ebb 89b5 0f3f 160c 9ebe 3e9d 3b3f
00000350: 708b 74be e51e 983f 3d18 69bf 3dd9 a73e
00000360: 07a5 f4be f74b 073f 4a58 663f 9690 1bbf
00000370: 0645 0abf 8500 173f f14e 3e3f 10cd d5be
00000380: 924d b2be 5815 e43e 5c43 2abf aa92 273f
00000390: dc33 64be 648d dbbe 3c53 673f dfcb 583f
000003a0: c67c c33e 2fef 04bf 128a 04bf 5d44 99bf
000003b0: bb42 09bf ffd0 953e 3d27 0f3f f47a bdbd
000003c0: 7dad 6cbe b790 36bf 5e47 e0be b96b a73f
000003d0: 147e 693f 1ddf 243f 884d bbbd afea f1be
000003e0: 4792 bd3c b340 d0bd dfba 793e c923 2f3f
000003f0: 64c8 e7bd 4548 383e 7acc e9be b972 d73e

l1.bias f4 [8]
1.4244802 1.134259 0.80661714 0.8122724 0.736731 1.4239962 0.6396693 0.77531475
00000000: 5e55 b63f 662f 913f 767e 4e3f 16f1 4f3f
00000010: 679a 3c3f 8245 b63f 5ec1 233f 077b 463f

l2.weight f4 [8, 8]
0.29290795 0.041506924 0.02298157 -0.41062608 -0.38617924 -0.16449694 0.33233336 0.5133196
1.3693337 0.58630997 1.7160132 -0.29665446 1.8591946 -0.3873089 -0.86735326 1.8398604
-0.058905575 2.203936 -1.8169816 1.8905189 2.2606428 1.0179962 0.19215524 -0.6501171
-1.5573839 -0.6814842 1.5657649 1.6619726 -0.03249659 1.0583696 1.0885745 1.7008154
1.3745954 -1.2652143 -0.87744594 0.041810635 -0.21606594 0.7390532 2.143217 0.97488844
-1.0012254 -0.88047373 1.5905352 0.22025886 -0.6828529 1.3251523 0.3325915 0.9034623
0.45007265 2.1010659 0.37491468 1.3133866 0.03143427 -1.0326102 0.80848044 2.7418122
2.5503528 -0.0853365 2.909915 -0.66168386 -1.1202964 2.122838 -1.1952568 -0.0642981
00000000: 08f8 953e 2a03 2a3d d843 bc3c 953d d2be
00000010: 49b9 c5be e371 28be 9927 aa3e ea68 033f
00000020: 5446 af3f 6918 163f 52a6 db3f 18e3 97be
00000030: 17fa ed3f 5a4d c6be dd0a 5ebf 8c80 eb3f
00000040: f946 71bd 4a0d 0d40 da92 e8bf 86fc f13f
00000050: 5fae 1040 b34d 823f 58c4 443e 136e 26bf
00000060: 5b58 c7bf c075 2ebf fc6a c83f 85bb d43f
00000070: 251b 05bd a878 873f 6956 8b3f 52b4 d93f
00000080: bef2 af3f 8bf2 a1bf 4ca0 60bf a141 2b3d
00000090: 6440 5dbe 9732 3d3f 782a 0940 4a92 793f
000000a0: 2728 80bf ba66 61bf a896 cb3f 8a8b 613e
000000b0: 73cf 2ebf 979e a93f 6f49 aa3e 4e49 673f
000000c0: ec6f e63e dd77 0640 d1f4 bf3e 0d1d a83f
000000d0: 39c1 003d 922c 84bf 93f8 4e3f da79 2f40
000000e0: fb38 2340 e7c4 aebd 0c3c 3a40 1d64 29bf
000000f0: df65 8fbf 94dc 0740 2dfe 98bf b9ae 83bd

l2.bias f4 [8]
-0.21955642 -0.59130144 0.493129 -0.18224551 0.23672871 -0.23294726 0.641596 1.1652501
00000000: 66d3 60be 885f 17bf 677b fc3e 919e 3abe
00000010: 0369 723e ba89 6ebe a33f 243f ea26 953f

l3.weight f4 [32, 8]
-0.023717932 0.5028149 -0.4570308 0.1606037 -1.861133 -2.1159296 0.60323805 -1.9493932
-1.2319809 -0.73699594 0.092861705 0.24340041 -2.0855546 -0.054135986 -0.6812614 -0.14393207
-1.6033788 0.5304927 -0.6053293 0.04506705 -0.100171685 -1.0589843 -0.15532906 -1.1600442
-0.6792919 0.7989411 -3.0616493 -3.3693879 0.22840045 -1.6211926 -1.6727697 0.7997874
-1.4437343 -0.83707184 0.35556212 -0.01888503 0.23361257 -0.77484924 -0.25905165 -1.3224165
-0.29610083 -1.5405169 -0.2643529 0.29435506 0.66655815 0.46239477 -0.5049501 -2.2058098
1.1400533 -1.8262284 -2.2194424 0.7084401 0.19887482 0.12250616 -0.6298471 -0.19861323
-0.8923163 -1.0617658 -1.3788198 0.42566603 -2.2993329 0.62870014 -1.8407189 0.6664847
0.09414023 0.92980003 -0.81076056 -2.8610404 -2.4904332 -4.4674587 0.24944453 0.3539464
0.35934347 -0.16447632 -0.57767797 -0.7921937 0.14630051 -4.1824474 0.5978507 -0.271072
-0.06046968 -0.018723805 -2.9444723 0.16361853 0.34709683 -1.2802569 -0.32536414 -0.020331996
-1.6729928 0.14506969 0.6775888 -4.1308527 -4.1824455 -2.0982597 0.16334583 0.12517029
-0.85684246 -0.3510458 0.71225417 -1.6114569 -0.18407562 -3.3212912 -0.79440737 -0.03788337
0.5597361 0.20206915 -1.5418963 -1.2415406 -1.3247291 -1.2166826 -0.33370483 0.81590194
-0.9302495 -0.1955547 -0.2502839 0.31027517 -0.014374136 -0.2096452 0.07144857 -3.0031912
-1.2534548 0.31435868 -1.6095757 0.14033663 -1.0105433 -0.3846196 -0.67511064 -0.1128973
0.07673772 0.08837422 -3.7802374 -0.17289518 0.061008327 0.020785397 -2.212859 0.53580326
-1.5911754 -0.08280685 -0.87804645 -1.9869514 0.6322151 -0.64311314 -3.8086004 0.72235024
-0.6138117 -3.552815 0.61788756 0.17571196 -2.2988453 -0.14471796 0.21595703 -0.58939797
-0.9953307 0.14422211 0.6659655 -2.8239508 -3.4828784 -1.5513035 0.9149557 -2.6636662
0.81594384 -2.949625 0.45525733 -0.10961298 -0.05042201 -3.3841739 0.71311164 -2.34164
-0.92064446 -0.32865545 0.79760486 0.37243912 -1.0466994 -2.715388 -0.12679327 -3.3795953
-1.0246887 0.71487457 0.30847323 -2.291212 -0.073805846 -2.3262482 0.16530815 -1.6446347
-1.8138818 -0.5710143 -1.1541297 0.38265762 -0.20292595 0.3852684 -0.17140563 -1.1152868
-0.26440367 -2.7462854 -0.35840178 -0.34868374 0.5254957 -0.50779146 -0.83125323 0.17423084
-0.15824957 -1.3762399 -0.16853233 -0.14828475 0.37022984 -0.6206908 -1.1868936 0.11362426
1.3558198 -0.97534573 -1.251726 -2.8146427 0.92228097 -2.649927 -0.7149799 0.7531895
-1.1379709 -2.839027 -2.1179266 0.41156268 0.20509818 0.57645345 -3.4321532 0.5871872
-0.9903993 0.7573704 -0.37429512 -3.664561 -0.08238698 -3.9283051 -1.361456 0.59461015
0.46934515 -0.71888876 -1.8866754 0.17889258 1.046191 -0.85905296 0.18167438 -1.2648188
-1.3726224 -0.9581438 -0.9278587 -0.4089087 -0.19587833 -0.8261622 0.3142102 0.30561292
-1.3253915 -0.7038365 0.41094673 -0.031315863 -3.74897 -4.4611244 0.48910174 -0.37928522
00000000: 1c4c c2bc 7ab8 003f f1ff e9be 4c75 243e
00000010: 9b39 eebf 646b 07c0 cf6d 1a3f b785 f9bf
00000020: 8db1 9dbf c4ab 3cbf 472e be3d f53d 793e
00000030: ba79 05c0 b2bd 5dbd 2667 2ebf ee62 13be
00000040: 843b cdbf 5fce 073f dcf6 1abf 3a98 383d
00000050: d026 cdbd cc8c 87bf 950e 1fbe 547c 94bf
00000060: 13e6 2dbf 6787 4c3f 10f2 43c0 0da4 57c0
00000070: cfe1 693e 3d83 cfbf 511d d6bf debe 4c3f
00000080: 49cc b8bf 574a 56bf 3d0c b63e c7b4 9abc
00000090: 2238 6f3e 855c 46bf 6ba2 84be f244 a9bf
000000a0: 879a 97be a82f c5bf 4359 87be b5b5 963e
000000b0: 8ea3 2a3f 02bf ec3e 6944 01bf fd2b 0dc0
000000c0: 44ed 913f dac1 e9bf 580b 0ec0 555c 353f
000000d0: d7a5 4b3e 82e4 fa3d a93d 21bf 4461 4bbe
000000e0: d76e 64bf f1e7 87bf 2b7d b0bf e6f0 d93e
000000f0: 4528 13c0 7ef2 203f ad9c ebbf be9e 2a3f
00000100: 98cc c03d 6007 6e3f 018e 4fbf 491b 37c0
00000110: 4263 1fc0 6cf5 8ec0 636e 7f3e 7638 b53e
00000120: defb b73e 7b6c 28be b4e2 13bf 35cd 4abf
00000130: cdcf 153e 9cd6 85c0 be0c 193f f3c9 8abe
00000140: 0eaf 77bd aa62 99bc 3c72 3cc0 9e8b 273e
00000150: adb6 b13e 75df a3bf 2196 a6be 498f a6bc
00000160: a124 d6bf 268d 143e 7676 2d3f f22f 84c0
00000170: 98d6 85c0 e349 06c0 2144 273e a42c 003e
00000180: 075a 5bbf 46bc b3be 4a56 363f 3844 cebf
00000190: 527e 3cbe 0990 54c0 485e 4bbf 982b 1bbd
000001a0: dd4a 0f3f 37eb 4e3e dc5c c5bf cdea 9ebf
000001b0: b990 a9bf 41bc 9bbf 5cdb aabe f3de 503f
000001c0: d524 6ebf 7e3f 48be 3625 80be 63dc 9e3e
000001d0: 7f81 6bbc 3bad 56be a153 923d 4934 40c0
000001e0: 3571 a0bf 9ff3 a03e 9406 cebf 68b4 0f3e
000001f0: 7c59 81bf dcec c4be 0dd4 2cbf b336 e7bd
00000200: aa28 9d3d 8bfd b43d 69ef 71c0 6f0b 31be
00000210: dee3 793d 2346 aa3c 7b9f 0dc0 672a 093f
00000220: a3ab cbbf a396 a9bd a7c7 60bf 6c54 febf
00000230: d9d8 213f 10a3 24bf 1cc0 73c0 f2eb 383f
00000240: c322 1dbf 5261 63c0 e12d 1e3f d6ed 333e
00000250: 4820 13c0 f230 14be d723 5d3e c9e2 16bf
00000260: fecd 7ebf f6ae 133e b77c 2a3f 9cbb 34c0
00000270: 7be7 5ec0 1d91 c6bf 893a 6a3f 8279 2ac0
00000280: b2e1 503f a8c6 3cc0 7d17 e93e c57c e0bd
00000290: 4f87 4ebd 4e96 58c0 7c8e 363f 6edd 15c0
000002a0: 5baf 6bbf 8745 a8be d52f 4c3f 57b0 be3e
000002b0: 3ffa 85bf ebc8 2dc0 18d6 01be 4a4b 58c0
000002c0: 0029 83bf 0502 373f 34f0 9d3e 38a3 12c0
000002d0: 8527 97bd 40e1 14c0 8a46 293e 6483 d2bf
000002e0: 472d e8bf fe2d 12bf 86ba 93bf b3eb c33e
000002f0: d2cb 4fbe e641 c53e f584 2fbe b8c1 8ebf
00000300: eb5f 87be 24c3 2fc0 7080 b7be ad86 b2be
00000310: e386 063f 9ffe 01bf 03cd 54bf 9269 323e
00000320: 2d0c 22be a128 b0bf bd93 2cbe f5d7 17be
00000330: c48e bd3e 98e5 1ebf 21ec 97bf d6b3 e83d
00000340: 818b ad3f 42b0 79bf 8f38 a0bf 1b23 34c0
00000350: 9b1a 6c3f 6798 29c0 ec08 37bf 07d1 403f
00000360: 08a9 91bf 9eb2 35c0 1c8c 07c0 58b8 d23e
00000370: 4205 523e 7492 133f 66a8 5bc0 e651 163f
00000380: cf8a 7dbf 07e3 413f 9ca3 bfbe 2b88 6ac0
00000390: 81ba a8bd 5a69 7bc0 3144 aebf 5f38 183f
000003a0: 024e f03e 1809 38bf 947e f1bf 9e2f 373e
000003b0: 96e9 853f e5ea 5bbf d908 3a3e 95e5 a1bf
000003c0: 17b2 afbf e948 75bf 2688 6dbf 7b5c d1be
000003d0: 5494 48be 5e7f 53bf 29e0 a03e 4c79 9c3e
000003e0: 6ea6 a9bf a12e 34bf 9c67 d23e 1045 00bd
000003f0: 20ef 6fc0 88c1 8ec0 8b6b fa3e ac31 c2be

l3.bias f4 [32]
-0.5078278 -0.18054368 -0.42641804 -0.2075981 -0.3777573 -0.21656753 -0.034233704 -0.076265894
0.015737792 0.24368098 -0.6394924 0.23948005 0.06976254 -0.08175756 -0.46569744 -1.0872227
-0.27740243 -0.13629703 0.5247519 0.6903205 0.22007799 -0.058425706 -0.66359913 -0.7192986
-0.039088942 0.15268442 0.4537149 0.3767262 0.13646927 0.41837487 0.5206936 0.39898637
00000000: 0101 02bf 71e0 38be 7753 dabe 9994 54be
00000010: 6869 c1be e1c3 5dbe a438 0cbd 4b31 9cbd
00000020: 8bec 803c 8287 793e c6b5 23bf 423a 753e
00000030: aadf 8e3d 8270 a7bd e56f eebe 1d2a 8bbf
00000040: b107 8ebe 7391 0bbe 2456 063f d8b8 303f
00000050: 205c 613e cb4f 6fbd a2e1 29bf f423 38bf
00000060: ba1b 20bd 4e59 1c3e 524d e83e 42e2 c03e
00000070: 9abe 0b3e 3b35 d63e 2d4c 053f f147 cc3e
